…
 lr                 | 0.0005              
 main_metric        |                     
 num_heads          | 4                   
 num_layers         | 2                   
 num_neg            | 1                   
 num_workers        | 5                   
 optimizer          | Adam                
 random_seed        | 0                   
 save_final_results | 1                   
 test_all           | 0                   
 topk               | 5,10,20,50          
===========================================
Device: cuda
Load corpus from data/Grocery_and_Gourmet_Food/SeqReader.pkl
#params: 1284224
SASRec(
  (i_embeddings): Embedding(8714, 128)
  (p_embeddings): Embedding(21, 128)
  (transformer_block): ModuleList(
    (0): TransformerLayer(
      (masked_attn_head): MultiHeadAttention(
        (q_linear): Linear(in_features=128, out_features=128, bias=True)
        (k_linear): Linear(in_features=128, out_features=128, bias=True)
        (v_linear): Linear(in_features=128, out_features=128, bias=True)
      )
      (layer_norm1): LayerNorm((128,), eps=1e-05, elementwise_affine=True)
      (dropout1): Dropout(p=0.3, inplace=False)
      (linear1): Linear(in_features=128, out_features=128, bias=True)
      (linear2): Linear(in_features=128, out_features=128, bias=True)
      (layer_norm2): LayerNorm((128,), eps=1e-05, elementwise_affine=True)
      (dropout2): Dropout(p=0.3, inplace=False)
    )
    (1): TransformerLayer(
      (masked_attn_head): MultiHeadAttention(
        (q_linear): Linear(in_features=128, out_features=128, bias=True)
        (k_linear): Linear(in_features=128, out_features=128, bias=True)
        (v_linear): Linear(in_features=128, out_features=128, bias=True)
      )
      (layer_norm1): LayerNorm((128,), eps=1e-05, elementwise_affine=True)
      (dropout1): Dropout(p=0.3, inplace=False)
      (linear1): Linear(in_features=128, out_features=128, bias=True)
      (linear2): Linear(in_features=128, out_features=128, bias=True)
      (layer_norm2): LayerNorm((128,), eps=1e-05, elementwise_affine=True)
      (dropout2): Dropout(p=0.3, inplace=False)
    )
  )
)

Test Before Training: (HR@5:0.0457,NDCG@5:0.0274,HR@10:0.0963,NDCG@10:0.0436,HR@20:0.1941,NDCG@20:0.0680,HR@50:0.4908,NDCG@50:0.1259)
Optimizer: Adam

Epoch 1     loss=0.4821 [4.6 s]	dev=(HR@5:0.3314,NDCG@5:0.2250) [0.4 s] *

Epoch 2     loss=0.3578 [4.5 s]	dev=(HR@5:0.3763,NDCG@5:0.2669) [0.3 s] *
…
 num_neg               | 1                   
 num_workers           | 5                   
 optimizer             | Adam                
 random_seed           | 0                   
 rescale_timesteps     | False               
 save_final_results    | 1                   
 schedule_sampler_name | uniform             
 test_all              | 0                   
 topk                  | 5,10,20,50          
==============================================
Device: cuda
Load corpus from data/Grocery_and_Gourmet_Food/SeqReader.pkl
#params: 1906176
DreamRec(
  (projection): Identity()
  (emb_projection): Identity()
  (i_embeddings): Embedding(8715, 128, padding_idx=0)
  (embed_dropout): Dropout(p=0.2, inplace=False)
  (hist_norm): LayerNorm((128,), eps=1e-05, elementwise_affine=True)
  (net): Diffu_xstart(
    (time_embed): Sequential(
      (0): Linear(in_features=128, out_features=512, bias=True)
      (1): SiLU()
      (2): Linear(in_features=512, out_features=128, bias=True)
    )
    (norm_diffu_rep): LayerNorm((128,), eps=1e-05, elementwise_affine=True)
    (mlp): Sequential(
      (0): Linear(in_features=384, out_features=512, bias=True)
      (1): SiLU()
      (2): Dropout(p=0.3, inplace=False)
      (3): Linear(in_features=512, out_features=128, bias=True)
      (4): Linear(in_features=128, out_features=512, bias=True)
      (5): SiLU()
      (6): Dropout(p=0.3, inplace=False)
      (7): Linear(in_features=512, out_features=128, bias=True)
    )
    (dropout): Dropout(p=0.3, inplace=False)
  )
  (ag_encoder): TransformerEncoder(
    (layers): ModuleList(
      (0): Sequential(
        (0): LayerNorm((128,), eps=1e-05, elementwise_affine=True)
        (1): Linear(in_features=128, out_features=512, bias=True)
        (2): SiLU()
        (3): Dropout(p=0.3, inplace=False)
        (4): Linear(in_features=512, out_features=128, bias=True)
        (5): Dropout(p=0.3, inplace=False)
      )
      (1): Sequential(
        (0): LayerNorm((128,), eps=1e-05, elementwise_affine=True)
        (1): Linear(in_features=128, out_features=512, bias=True)
        (2): SiLU()
        (3): Dropout(p=0.3, inplace=False)
        (4): Linear(in_features=512, out_features=128, bias=True)
        (5): Dropout(p=0.3, inplace=False)
      )
    )
  )
  (ce_loss): CrossEntropyLoss()
)

Test Before Training: (HR@5:0.0502,NDCG@5:0.0295,HR@10:0.1014,NDCG@10:0.0459,HR@20:0.2050,NDCG@20:0.0717,HR@50:0.4985,NDCG@50:0.1291)
Optimizer: Adam

Epoch 1     loss=0.5060 [5.1 s]	dev=(HR@5:0.2381,NDCG@5:0.1558) [3.5 s] *

Epoch 2     loss=0.4522 [5.1 s]	dev=(HR@5:0.2467,NDCG@5:0.1619) [3.5 s] *
…
 num_neg               | 1                   
 num_workers           | 5                   
 optimizer             | Adam                
 random_seed           | 0                   
 rescale_timesteps     | False               
 save_final_results    | 1                   
 schedule_sampler_name | uniform             
 test_all              | 0                   
 topk                  | 5,10,20,50          
==============================================
Device: cpu
Load corpus from data/Grocery_and_Gourmet_Food/SeqReader.pkl
#params: 1775616
DiffuRec(
  (projection): Identity()
  (emb_projection): Identity()
  (i_embeddings): Embedding(8715, 128, padding_idx=0)
  (embed_dropout): Dropout(p=0.2, inplace=False)
  (hist_norm): LayerNorm((128,), eps=1e-05, elementwise_affine=True)
  (net): Diffu_xstart(
    (time_embed): Sequential(
      (0): Linear(in_features=128, out_features=512, bias=True)
      (1): SiLU()
      (2): Linear(in_features=512, out_features=128, bias=True)
    )
    (transencoder): TransformerEncoder(
      (layers): ModuleList(
        (0): Sequential(
          (0): LayerNorm((128,), eps=1e-05, elementwise_affine=True)
          (1): Linear(in_features=128, out_features=512, bias=True)
          (2): SiLU()
          (3): Dropout(p=0.3, inplace=False)
          (4): Linear(in_features=512, out_features=128, bias=True)
          (5): Dropout(p=0.3, inplace=False)
        )
        (1): Sequential(
          (0): LayerNorm((128,), eps=1e-05, elementwise_affine=True)
          (1): Linear(in_features=128, out_features=512, bias=True)
          (2): SiLU()
          (3): Dropout(p=0.3, inplace=False)
          (4): Linear(in_features=512, out_features=128, bias=True)
          (5): Dropout(p=0.3, inplace=False)
        )
        (2): Sequential(
          (0): LayerNorm((128,), eps=1e-05, elementwise_affine=True)
          (1): Linear(in_features=128, out_features=512, bias=True)
          (2): SiLU()
          (3): Dropout(p=0.3, inplace=False)
          (4): Linear(in_features=512, out_features=128, bias=True)
          (5): Dropout(p=0.3, inplace=False)
        )
        (3): Sequential(
          (0): LayerNorm((128,), eps=1e-05, elementwise_affine=True)
          (1): Linear(in_features=128, out_features=512, bias=True)
          (2): SiLU()
          (3): Dropout(p=0.3, inplace=False)
          (4): Linear(in_features=512, out_features=128, bias=True)
          (5): Dropout(p=0.3, inplace=False)
        )
      )
    )
    (norm_diffu_rep): LayerNorm((128,), eps=1e-05, elementwise_affine=True)
    (dropout): Dropout(p=0.3, inplace=False)
  )
  (ce_loss): CrossEntropyLoss()
)

Test Before Training: (HR@5:0.0480,NDCG@5:0.0281,HR@10:0.0975,NDCG@10:0.0438,HR@20:0.2001,NDCG@20:0.0695,HR@50:0.5024,NDCG@50:0.1285)
Optimizer: Adam

Epoch 1     loss=0.5168 [36.2 s]	dev=(HR@5:0.2378,NDCG@5:0.1552) [67.0 s] *

Epoch 2     loss=0.4515 [37.1 s]	dev=(HR@5:0.2426,NDCG@5:0.1587) [65.2 s] *
…
 optimizer             | Adam                
 pretrain_epochs       | 10                  
 random_seed           | 0                   
 rescale_timesteps     | False               
 save_final_results    | 1                   
 test_all              | 0                   
 topk                  | 5,10,20,50          
 training_stage        | stage1              
 warmup_epochs         | 5                   
==============================================
Device: cuda
Load corpus from data/Grocery_and_Gourmet_Food/SeqReader.pkl
#params: 1115648
ADRec(
  (projection): Identity()
  (emb_projection): Identity()
  (i_embeddings): Embedding(8714, 128)
  (embed_dropout): Dropout(p=0.2, inplace=False)
  (hist_norm): LayerNorm((128,), eps=1e-05, elementwise_affine=True)
  (diffusion): DiffusionModule(
    (denoise_net): DenoisedModel(
      (decoder): TransformerEncoder(
        (layers): ModuleList(
          (0): Sequential(
            (0): LayerNorm((128,), eps=1e-05, elementwise_affine=True)
            (1): Linear(in_features=128, out_features=512, bias=True)
            (2): SiLU()
            (3): Dropout(p=0.1, inplace=False)
            (4): Linear(in_features=512, out_features=128, bias=True)
            (5): Dropout(p=0.1, inplace=False)
          )
          (1): Sequential(
            (0): LayerNorm((128,), eps=1e-05, elementwise_affine=True)
            (1): Linear(in_features=128, out_features=512, bias=True)
            (2): SiLU()
            (3): Dropout(p=0.1, inplace=False)
            (4): Linear(in_features=512, out_features=128, bias=True)
            (5): Dropout(p=0.1, inplace=False)
          )
        )
      )
      (time_embed): Sequential(
        (0): Linear(in_features=128, out_features=512, bias=True)
        (1): SiLU()
        (2): Linear(in_features=512, out_features=128, bias=True)
      )
    )
    (condition_encoder): TransformerEncoder(
      (layers): ModuleList(
        (0): Sequential(
          (0): LayerNorm((128,), eps=1e-05, elementwise_affine=True)
          (1): Linear(in_features=128, out_features=512, bias=True)
          (2): SiLU()
          (3): Dropout(p=0.3, inplace=False)
          (4): Linear(in_features=512, out_features=128, bias=True)
          (5): Dropout(p=0.3, inplace=False)
        )
        (1): Sequential(
          (0): LayerNorm((128,), eps=1e-05, elementwise_affine=True)
          (1): Linear(in_features=128, out_features=512, bias=True)
          (2): SiLU()
          (3): Dropout(p=0.3, inplace=False)
          (4): Linear(in_features=512, out_features=128, bias=True)
          (5): Dropout(p=0.3, inplace=False)
        )
        (2): Sequential(
          (0): LayerNorm((128,), eps=1e-05, elementwise_affine=True)
          (1): Linear(in_features=128, out_features=512, bias=True)
          (2): SiLU()
          (3): Dropout(p=0.3, inplace=False)
          (4): Linear(in_features=512, out_features=128, bias=True)
          (5): Dropout(p=0.3, inplace=False)
        )
        (3): Sequential(
          (0): LayerNorm((128,), eps=1e-05, elementwise_affine=True)
          (1): Linear(in_features=128, out_features=512, bias=True)
          (2): SiLU()
          (3): Dropout(p=0.3, inplace=False)
          (4): Linear(in_features=512, out_features=128, bias=True)
          (5): Dropout(p=0.3, inplace=False)
        )
      )
    )
  )
  (ce_loss): CrossEntropyLoss()
)
Test Before Training: (HR@5:0.0505,NDCG@5:0.0298,HR@10:0.0967,NDCG@10:0.0445,HR@20:0.1975,NDCG@20:0.0697,HR@50:0.5013,NDCG@50:0.1290)
Optimizer: Adam
Epoch 1     loss=0.5518 [4.3 s] dev=(HR@5:0.2363,NDCG@5:0.1543) [11.5 s] *                          
…
 gpu                | 0           
 history_max        | 20          
 l2                 | 1e-05       
 lr                 | 0.0005      
 main_metric        |             
 num_heads          | 4           
 num_layers         | 2           
 num_neg            | 1           
 num_workers        | 5           
 optimizer          | Adam        
 random_seed        | 0           
 save_final_results | 1           
 test_all           | 0           
 topk               | 5,10,20,50  
===================================
Device: cuda
Load corpus from data/MovieLens_1M/SeqReader.pkl
#params: 568960
SASRec(
  (i_embeddings): Embedding(3126, 128)
  (p_embeddings): Embedding(21, 128)
  (transformer_block): ModuleList(
    (0): TransformerLayer(
      (masked_attn_head): MultiHeadAttention(
        (q_linear): Linear(in_features=128, out_features=128, bias=True)
        (k_linear): Linear(in_features=128, out_features=128, bias=True)
        (v_linear): Linear(in_features=128, out_features=128, bias=True)
      )
      (layer_norm1): LayerNorm((128,), eps=1e-05, elementwise_affine=True)
      (dropout1): Dropout(p=0.3, inplace=False)
      (linear1): Linear(in_features=128, out_features=128, bias=True)
      (linear2): Linear(in_features=128, out_features=128, bias=True)
      (layer_norm2): LayerNorm((128,), eps=1e-05, elementwise_affine=True)
      (dropout2): Dropout(p=0.3, inplace=False)
    )
    (1): TransformerLayer(
      (masked_attn_head): MultiHeadAttention(
        (q_linear): Linear(in_features=128, out_features=128, bias=True)
        (k_linear): Linear(in_features=128, out_features=128, bias=True)
        (v_linear): Linear(in_features=128, out_features=128, bias=True)
      )
      (layer_norm1): LayerNorm((128,), eps=1e-05, elementwise_affine=True)
      (dropout1): Dropout(p=0.3, inplace=False)
      (linear1): Linear(in_features=128, out_features=128, bias=True)
      (linear2): Linear(in_features=128, out_features=128, bias=True)
      (layer_norm2): LayerNorm((128,), eps=1e-05, elementwise_affine=True)
      (dropout2): Dropout(p=0.3, inplace=False)
    )
  )
)

Test Before Training: (HR@5:0.0525,NDCG@5:0.0305,HR@10:0.1051,NDCG@10:0.0473,HR@20:0.2032,NDCG@20:0.0718,HR@50:0.5077,NDCG@50:0.1313)
Optimizer: Adam

Epoch 1     loss=0.2450 [22.7 s]	dev=(HR@5:0.4528,NDCG@5:0.3128) [0.2 s] *

Epoch 2     loss=0.1540 [22.7 s]	dev=(HR@5:0.4988,NDCG@5:0.3455) [0.2 s] *
…
 main_metric           |             
 noise_schedule        | linear      
 num_neg               | 1           
 num_workers           | 5           
 optimizer             | Adam        
 random_seed           | 0           
 rescale_timesteps     | False       
 save_final_results    | 1           
 schedule_sampler_name | uniform     
 test_all              | 0           
 topk                  | 5,10,20,50  
======================================
Device: cuda
Load corpus from data/MovieLens_1M/SeqReader.pkl
#params: 1190912
DreamRec(
  (projection): Identity()
  (emb_projection): Identity()
  (i_embeddings): Embedding(3127, 128, padding_idx=0)
  (embed_dropout): Dropout(p=0.2, inplace=False)
  (hist_norm): LayerNorm((128,), eps=1e-05, elementwise_affine=True)
  (net): Diffu_xstart(
    (time_embed): Sequential(
      (0): Linear(in_features=128, out_features=512, bias=True)
      (1): SiLU()
      (2): Linear(in_features=512, out_features=128, bias=True)
    )
    (norm_diffu_rep): LayerNorm((128,), eps=1e-05, elementwise_affine=True)
    (mlp): Sequential(
      (0): Linear(in_features=384, out_features=512, bias=True)
      (1): SiLU()
      (2): Dropout(p=0.3, inplace=False)
      (3): Linear(in_features=512, out_features=128, bias=True)
      (4): Linear(in_features=128, out_features=512, bias=True)
      (5): SiLU()
      (6): Dropout(p=0.3, inplace=False)
      (7): Linear(in_features=512, out_features=128, bias=True)
    )
    (dropout): Dropout(p=0.3, inplace=False)
  )
  (ag_encoder): TransformerEncoder(
    (layers): ModuleList(
      (0): Sequential(
        (0): LayerNorm((128,), eps=1e-05, elementwise_affine=True)
        (1): Linear(in_features=128, out_features=512, bias=True)
        (2): SiLU()
        (3): Dropout(p=0.3, inplace=False)
        (4): Linear(in_features=512, out_features=128, bias=True)
        (5): Dropout(p=0.3, inplace=False)
      )
      (1): Sequential(
        (0): LayerNorm((128,), eps=1e-05, elementwise_affine=True)
        (1): Linear(in_features=128, out_features=512, bias=True)
        (2): SiLU()
        (3): Dropout(p=0.3, inplace=False)
        (4): Linear(in_features=512, out_features=128, bias=True)
        (5): Dropout(p=0.3, inplace=False)
      )
    )
  )
  (ce_loss): CrossEntropyLoss()
)

Test Before Training: (HR@5:0.0445,NDCG@5:0.0264,HR@10:0.0926,NDCG@10:0.0416,HR@20:0.1924,NDCG@20:0.0666,HR@50:0.5108,NDCG@50:0.1288)
Optimizer: Adam

Epoch 1     loss=0.3322 [25.3 s]	dev=(HR@5:0.3653,NDCG@5:0.2378) [0.8 s] *

Epoch 2     loss=0.2825 [25.2 s]	dev=(HR@5:0.3532,NDCG@5:0.2320) [0.8 s]
…
 main_metric           |             
 noise_schedule        | linear      
 num_neg               | 1           
 num_workers           | 5           
 optimizer             | Adam        
 random_seed           | 0           
 rescale_timesteps     | False       
 save_final_results    | 1           
 schedule_sampler_name | uniform     
 test_all              | 0           
 topk                  | 5,10,20,50  
======================================
Device: cpu
Load corpus from data/MovieLens_1M/SeqReader.pkl
#params: 1060352
DiffuRec(
  (projection): Identity()
  (emb_projection): Identity()
  (i_embeddings): Embedding(3127, 128, padding_idx=0)
  (embed_dropout): Dropout(p=0.2, inplace=False)
  (hist_norm): LayerNorm((128,), eps=1e-05, elementwise_affine=True)
  (net): Diffu_xstart(
    (time_embed): Sequential(
      (0): Linear(in_features=128, out_features=512, bias=True)
      (1): SiLU()
      (2): Linear(in_features=512, out_features=128, bias=True)
    )
    (transencoder): TransformerEncoder(
      (layers): ModuleList(
        (0): Sequential(
          (0): LayerNorm((128,), eps=1e-05, elementwise_affine=True)
          (1): Linear(in_features=128, out_features=512, bias=True)
          (2): SiLU()
          (3): Dropout(p=0.3, inplace=False)
          (4): Linear(in_features=512, out_features=128, bias=True)
          (5): Dropout(p=0.3, inplace=False)
        )
        (1): Sequential(
          (0): LayerNorm((128,), eps=1e-05, elementwise_affine=True)
          (1): Linear(in_features=128, out_features=512, bias=True)
          (2): SiLU()
          (3): Dropout(p=0.3, inplace=False)
          (4): Linear(in_features=512, out_features=128, bias=True)
          (5): Dropout(p=0.3, inplace=False)
        )
        (2): Sequential(
          (0): LayerNorm((128,), eps=1e-05, elementwise_affine=True)
          (1): Linear(in_features=128, out_features=512, bias=True)
          (2): SiLU()
          (3): Dropout(p=0.3, inplace=False)
          (4): Linear(in_features=512, out_features=128, bias=True)
          (5): Dropout(p=0.3, inplace=False)
        )
        (3): Sequential(
          (0): LayerNorm((128,), eps=1e-05, elementwise_affine=True)
          (1): Linear(in_features=128, out_features=512, bias=True)
          (2): SiLU()
          (3): Dropout(p=0.3, inplace=False)
          (4): Linear(in_features=512, out_features=128, bias=True)
          (5): Dropout(p=0.3, inplace=False)
        )
      )
    )
    (norm_diffu_rep): LayerNorm((128,), eps=1e-05, elementwise_affine=True)
    (dropout): Dropout(p=0.3, inplace=False)
  )
  (ce_loss): CrossEntropyLoss()
)

Test Before Training: (HR@5:0.0473,NDCG@5:0.0275,HR@10:0.0964,NDCG@10:0.0431,HR@20:0.1917,NDCG@20:0.0669,HR@50:0.4965,NDCG@50:0.1265)
Optimizer: Adam

Epoch 1     loss=0.3283 [177.8 s]	dev=(HR@5:0.3786,NDCG@5:0.2502) [15.4 s] *

Epoch 2     loss=0.2552 [183.0 s]	dev=(HR@5:0.3743,NDCG@5:0.2537) [16.0 s] *
…
 num_neg               | 1           
 num_workers           | 5           
 optimizer             | Adam        
 pretrain_epochs       | 10          
 random_seed           | 0           
 rescale_timesteps     | False       
 save_final_results    | 1           
 test_all              | 0           
 topk                  | 5,10,20,50  
 training_stage        | stage1      
 warmup_epochs         | 5           
======================================
Device: cuda
Load corpus from data/MovieLens_1M/SeqReader.pkl
#params: 400384
ADRec(
  (projection): Identity()
  (emb_projection): Identity()
  (i_embeddings): Embedding(3126, 128)
  (embed_dropout): Dropout(p=0.2, inplace=False)
  (hist_norm): LayerNorm((128,), eps=1e-05, elementwise_affine=True)
  (diffusion): DiffusionModule(
    (denoise_net): DenoisedModel(
      (decoder): TransformerEncoder(
        (layers): ModuleList(
          (0): Sequential(
            (0): LayerNorm((128,), eps=1e-05, elementwise_affine=True)
            (1): Linear(in_features=128, out_features=512, bias=True)
            (2): SiLU()
            (3): Dropout(p=0.1, inplace=False)
            (4): Linear(in_features=512, out_features=128, bias=True)
            (5): Dropout(p=0.1, inplace=False)
          )
          (1): Sequential(
            (0): LayerNorm((128,), eps=1e-05, elementwise_affine=True)
            (1): Linear(in_features=128, out_features=512, bias=True)
            (2): SiLU()
            (3): Dropout(p=0.1, inplace=False)
            (4): Linear(in_features=512, out_features=128, bias=True)
            (5): Dropout(p=0.1, inplace=False)
          )
        )
      )
      (time_embed): Sequential(
        (0): Linear(in_features=128, out_features=512, bias=True)
        (1): SiLU()
        (2): Linear(in_features=512, out_features=128, bias=True)
      )
    )
    (condition_encoder): TransformerEncoder(
      (layers): ModuleList(
        (0): Sequential(
          (0): LayerNorm((128,), eps=1e-05, elementwise_affine=True)
          (1): Linear(in_features=128, out_features=512, bias=True)
          (2): SiLU()
          (3): Dropout(p=0.3, inplace=False)
          (4): Linear(in_features=512, out_features=128, bias=True)
          (5): Dropout(p=0.3, inplace=False)
        )
        (1): Sequential(
          (0): LayerNorm((128,), eps=1e-05, elementwise_affine=True)
          (1): Linear(in_features=128, out_features=512, bias=True)
          (2): SiLU()
          (3): Dropout(p=0.3, inplace=False)
          (4): Linear(in_features=512, out_features=128, bias=True)
          (5): Dropout(p=0.3, inplace=False)
        )
        (2): Sequential(
          (0): LayerNorm((128,), eps=1e-05, elementwise_affine=True)
          (1): Linear(in_features=128, out_features=512, bias=True)
          (2): SiLU()
          (3): Dropout(p=0.3, inplace=False)
          (4): Linear(in_features=512, out_features=128, bias=True)
          (5): Dropout(p=0.3, inplace=False)
        )
        (3): Sequential(
          (0): LayerNorm((128,), eps=1e-05, elementwise_affine=True)
          (1): Linear(in_features=128, out_features=512, bias=True)
          (2): SiLU()
          (3): Dropout(p=0.3, inplace=False)
          (4): Linear(in_features=512, out_features=128, bias=True)
          (5): Dropout(p=0.3, inplace=False)
        )
      )
    )
  )
  (ce_loss): CrossEntropyLoss()
)

Test Before Training: (HR@5:0.0536,NDCG@5:0.0308,HR@10:0.1075,NDCG@10:0.0479,HR@20:0.2063,NDCG@20:0.0726,HR@50:0.4951,NDCG@50:0.1289)
Optimizer: Adam

Epoch 1     loss=0.2977 [20.2 s]	dev=(HR@5:0.4083,NDCG@5:0.2834) [2.2 s] *

Epoch 2     loss=0.2041 [20.0 s]	dev=(HR@5:0.4204,NDCG@5:0.2835) [2.2 s] *
…
 optimizer             | Adam                
 pretrain_epochs       | 10                  
 random_seed           | 0                   
 rescale_timesteps     | False               
 save_final_results    | 1                   
 test_all              | 0                   
 topk                  | 5,10,20,50          
 training_stage        | stage1              
 warmup_epochs         | 5                   
==============================================
Device: cuda
Load corpus from data/Grocery_and_Gourmet_Food/SeqReader.pkl
#params: 1115648
ADRec(
  (projection): Identity()
  (emb_projection): Identity()
  (i_embeddings): Embedding(8714, 128)
  (embed_dropout): Dropout(p=0.2, inplace=False)
  (hist_norm): LayerNorm((128,), eps=1e-05, elementwise_affine=True)
  (diffusion): DiffusionModule(
    (denoise_net): DenoisedModel(
      (decoder): TransformerEncoder(
        (layers): ModuleList(
          (0): Sequential(
            (0): LayerNorm((128,), eps=1e-05, elementwise_affine=True)
            (1): Linear(in_features=128, out_features=512, bias=True)
            (2): SiLU()
            (3): Dropout(p=0.1, inplace=False)
            (4): Linear(in_features=512, out_features=128, bias=True)
            (5): Dropout(p=0.1, inplace=False)
          )
          (1): Sequential(
            (0): LayerNorm((128,), eps=1e-05, elementwise_affine=True)
            (1): Linear(in_features=128, out_features=512, bias=True)
            (2): SiLU()
            (3): Dropout(p=0.1, inplace=False)
            (4): Linear(in_features=512, out_features=128, bias=True)
            (5): Dropout(p=0.1, inplace=False)
          )
        )
      )
      (time_embed): Sequential(
        (0): Linear(in_features=128, out_features=512, bias=True)
        (1): SiLU()
        (2): Linear(in_features=512, out_features=128, bias=True)
      )
    )
    (condition_encoder): TransformerEncoder(
      (layers): ModuleList(
        (0): Sequential(
          (0): LayerNorm((128,), eps=1e-05, elementwise_affine=True)
          (1): Linear(in_features=128, out_features=512, bias=True)
          (2): SiLU()
          (3): Dropout(p=0.3, inplace=False)
          (4): Linear(in_features=512, out_features=128, bias=True)
          (5): Dropout(p=0.3, inplace=False)
        )
        (1): Sequential(
          (0): LayerNorm((128,), eps=1e-05, elementwise_affine=True)
          (1): Linear(in_features=128, out_features=512, bias=True)
          (2): SiLU()
          (3): Dropout(p=0.3, inplace=False)
          (4): Linear(in_features=512, out_features=128, bias=True)
          (5): Dropout(p=0.3, inplace=False)
        )
      )
    )
  )
  (ce_loss): CrossEntropyLoss()
)

Test Before Training: (HR@5:0.0557,NDCG@5:0.0321,HR@10:0.1028,NDCG@10:0.0472,HR@20:0.1988,NDCG@20:0.0712,HR@50:0.4894,NDCG@50:0.1278)
Optimizer: Adam

Epoch 1     loss=0.5530 [2.7 s]	dev=(HR@5:0.2402,NDCG@5:0.1570) [6.0 s] *

Epoch 2     loss=0.3603 [2.6 s]	dev=(HR@5:0.2635,NDCG@5:0.1772) [6.0 s] *
…
 optimizer             | Adam                
 pretrain_epochs       | 10                  
 random_seed           | 0                   
 rescale_timesteps     | False               
 save_final_results    | 1                   
 test_all              | 0                   
 topk                  | 5,10,20,50          
 training_stage        | stage1              
 warmup_epochs         | 5                   
==============================================
Device: cuda
Load corpus from data/Grocery_and_Gourmet_Food/SeqReader.pkl
#params: 278912
ADRec(
  (projection): Identity()
  (emb_projection): Identity()
  (i_embeddings): Embedding(8714, 32)
  (embed_dropout): Dropout(p=0.2, inplace=False)
  (hist_norm): LayerNorm((32,), eps=1e-05, elementwise_affine=True)
  (diffusion): DiffusionModule(
    (denoise_net): DenoisedModel(
      (decoder): TransformerEncoder(
        (layers): ModuleList(
          (0): Sequential(
            (0): LayerNorm((32,), eps=1e-05, elementwise_affine=True)
            (1): Linear(in_features=32, out_features=128, bias=True)
            (2): SiLU()
            (3): Dropout(p=0.1, inplace=False)
            (4): Linear(in_features=128, out_features=32, bias=True)
            (5): Dropout(p=0.1, inplace=False)
          )
          (1): Sequential(
            (0): LayerNorm((32,), eps=1e-05, elementwise_affine=True)
            (1): Linear(in_features=32, out_features=128, bias=True)
            (2): SiLU()
            (3): Dropout(p=0.1, inplace=False)
            (4): Linear(in_features=128, out_features=32, bias=True)
            (5): Dropout(p=0.1, inplace=False)
          )
        )
      )
      (time_embed): Sequential(
        (0): Linear(in_features=32, out_features=128, bias=True)
        (1): SiLU()
        (2): Linear(in_features=128, out_features=32, bias=True)
      )
    )
    (condition_encoder): TransformerEncoder(
      (layers): ModuleList(
        (0): Sequential(
          (0): LayerNorm((32,), eps=1e-05, elementwise_affine=True)
          (1): Linear(in_features=32, out_features=128, bias=True)
          (2): SiLU()
          (3): Dropout(p=0.3, inplace=False)
          (4): Linear(in_features=128, out_features=32, bias=True)
          (5): Dropout(p=0.3, inplace=False)
        )
        (1): Sequential(
          (0): LayerNorm((32,), eps=1e-05, elementwise_affine=True)
          (1): Linear(in_features=32, out_features=128, bias=True)
          (2): SiLU()
          (3): Dropout(p=0.3, inplace=False)
          (4): Linear(in_features=128, out_features=32, bias=True)
          (5): Dropout(p=0.3, inplace=False)
        )
        (2): Sequential(
          (0): LayerNorm((32,), eps=1e-05, elementwise_affine=True)
          (1): Linear(in_features=32, out_features=128, bias=True)
          (2): SiLU()
          (3): Dropout(p=0.3, inplace=False)
          (4): Linear(in_features=128, out_features=32, bias=True)
          (5): Dropout(p=0.3, inplace=False)
        )
        (3): Sequential(
          (0): LayerNorm((32,), eps=1e-05, elementwise_affine=True)
          (1): Linear(in_features=32, out_features=128, bias=True)
          (2): SiLU()
          (3): Dropout(p=0.3, inplace=False)
          (4): Linear(in_features=128, out_features=32, bias=True)
          (5): Dropout(p=0.3, inplace=False)
        )
      )
    )
  )
  (ce_loss): CrossEntropyLoss()
)
Test Before Training: (HR@5:0.0506,NDCG@5:0.0298,HR@10:0.1000,NDCG@10:0.0455,HR@20:0.2053,NDCG@20:0.0719,HR@50:0.5064,NDCG@50:0.1304)
Optimizer: Adam
Epoch 1     loss=0.6132 [2.3 s] dev=(HR@5:0.2211,NDCG@5:0.1404) [1.1 s] *                           
…
