…
 optimizer             | Adam                
 pretrain_epochs       | 10                  
 random_seed           | 0                   
 rescale_timesteps     | False               
 save_final_results    | 1                   
 test_all              | 0                   
 topk                  | 5,10,20,50          
 training_stage        | stage1              
 warmup_epochs         | 5                   
==============================================
Device: cuda
Load corpus from data/Grocery_and_Gourmet_Food/SeqReader.pkl
#params: 1115648
ADRec(
  (projection): Identity()
  (emb_projection): Identity()
  (i_embeddings): Embedding(8714, 128)
  (embed_dropout): Dropout(p=0.2, inplace=False)
  (hist_norm): LayerNorm((128,), eps=1e-05, elementwise_affine=True)
  (diffusion): DiffusionModule(
    (denoise_net): DenoisedModel(
      (decoder): TransformerEncoder(
        (layers): ModuleList(
          (0-1): 2 x Sequential(
            (0): LayerNorm((128,), eps=1e-05, elementwise_affine=True)
            (1): Linear(in_features=128, out_features=512, bias=True)
            (2): SiLU()
            (3): Dropout(p=0.1, inplace=False)
            (4): Linear(in_features=512, out_features=128, bias=True)
            (5): Dropout(p=0.1, inplace=False)
          )
        )
      )
      (time_embed): Sequential(
        (0): Linear(in_features=128, out_features=512, bias=True)
        (1): SiLU()
        (2): Linear(in_features=512, out_features=128, bias=True)
      )
    )
    (condition_encoder): TransformerEncoder(
      (layers): ModuleList(
        (0-3): 4 x Sequential(
          (0): LayerNorm((128,), eps=1e-05, elementwise_affine=True)
          (1): Linear(in_features=128, out_features=512, bias=True)
          (2): SiLU()
          (3): Dropout(p=0.3, inplace=False)
          (4): Linear(in_features=512, out_features=128, bias=True)
          (5): Dropout(p=0.3, inplace=False)
        )
      )
    )
  )
  (ce_loss): CrossEntropyLoss()
)
Test Before Training: (HR@5:0.0505,NDCG@5:0.0298,HR@10:0.0967,NDCG@10:0.0445,HR@20:0.1975,NDCG@20:0.0697,HR@50:0.5013,NDCG@50:0.1290)
Optimizer: Adam
Epoch 1     loss=0.5522 [6.5 s]	dev=(HR@5:0.2346,NDCG@5:0.1531) [6.9 s] *
Epoch 2     loss=0.3603 [7.6 s]	dev=(HR@5:0.2596,NDCG@5:0.1766) [7.2 s] *
…
 random_seed           | 0           
 rescale_timesteps     | False       
 save_final_results    | 1           
 test_all              | 0           
 topk                  | 5,10,20,50  
 training_stage        | stage1      
 warmup_epochs         | 5           
======================================
Device: cuda
Reading data from "data/", dataset = "MovieLens_1M" 
Counting dataset statistics...
"# user": 6032, "# item": 3125, "# entry": 574197
Appending history info...
Save corpus to data/MovieLens_1M/SeqReader.pkl
#params: 400384
ADRec(
  (projection): Identity()
  (emb_projection): Identity()
  (i_embeddings): Embedding(3126, 128)
  (embed_dropout): Dropout(p=0.2, inplace=False)
  (hist_norm): LayerNorm((128,), eps=1e-05, elementwise_affine=True)
  (diffusion): DiffusionModule(
    (denoise_net): DenoisedModel(
      (decoder): TransformerEncoder(
        (layers): ModuleList(
          (0-1): 2 x Sequential(
            (0): LayerNorm((128,), eps=1e-05, elementwise_affine=True)
            (1): Linear(in_features=128, out_features=512, bias=True)
            (2): SiLU()
            (3): Dropout(p=0.1, inplace=False)
            (4): Linear(in_features=512, out_features=128, bias=True)
            (5): Dropout(p=0.1, inplace=False)
          )
        )
      )
      (time_embed): Sequential(
        (0): Linear(in_features=128, out_features=512, bias=True)
        (1): SiLU()
        (2): Linear(in_features=512, out_features=128, bias=True)
      )
    )
    (condition_encoder): TransformerEncoder(
      (layers): ModuleList(
        (0-3): 4 x Sequential(
          (0): LayerNorm((128,), eps=1e-05, elementwise_affine=True)
          (1): Linear(in_features=128, out_features=512, bias=True)
          (2): SiLU()
          (3): Dropout(p=0.3, inplace=False)
          (4): Linear(in_features=512, out_features=128, bias=True)
          (5): Dropout(p=0.3, inplace=False)
        )
      )
    )
  )
  (ce_loss): CrossEntropyLoss()
)
   0%|                                                                                                                                                            | 0/2562 [00:00<?, ?it/s]
Test Before Training: (HR@5:0.0470,NDCG@5:0.0276,HR@10:0.0981,NDCG@10:0.0438,HR@20:0.1935,NDCG@20:0.0676,HR@50:0.4962,NDCG@50:0.1267)
…
 optimizer             | Adam                
 pretrain_epochs       | 10                  
 random_seed           | 0                   
 rescale_timesteps     | False               
 save_final_results    | 1                   
 test_all              | 0                   
 topk                  | 5,10,20,50          
 training_stage        | stage1              
 warmup_epochs         | 5                   
==============================================
Device: cuda
Load corpus from data/Grocery_and_Gourmet_Food/SeqReader.pkl
#params: 278912
ADRec(
  (projection): Identity()
  (emb_projection): Identity()
  (i_embeddings): Embedding(8714, 32)
  (embed_dropout): Dropout(p=0.2, inplace=False)
  (hist_norm): LayerNorm((32,), eps=1e-05, elementwise_affine=True)
  (diffusion): DiffusionModule(
    (denoise_net): DenoisedModel(
      (decoder): TransformerEncoder(
        (layers): ModuleList(
          (0-1): 2 x Sequential(
            (0): LayerNorm((32,), eps=1e-05, elementwise_affine=True)
            (1): Linear(in_features=32, out_features=128, bias=True)
            (2): SiLU()
            (3): Dropout(p=0.1, inplace=False)
            (4): Linear(in_features=128, out_features=32, bias=True)
            (5): Dropout(p=0.1, inplace=False)
          )
        )
      )
      (time_embed): Sequential(
        (0): Linear(in_features=32, out_features=128, bias=True)
        (1): SiLU()
        (2): Linear(in_features=128, out_features=32, bias=True)
      )
    )
    (condition_encoder): TransformerEncoder(
      (layers): ModuleList(
        (0-3): 4 x Sequential(
          (0): LayerNorm((32,), eps=1e-05, elementwise_affine=True)
          (1): Linear(in_features=32, out_features=128, bias=True)
          (2): SiLU()
          (3): Dropout(p=0.3, inplace=False)
          (4): Linear(in_features=128, out_features=32, bias=True)
          (5): Dropout(p=0.3, inplace=False)
        )
      )
    )
  )
  (ce_loss): CrossEntropyLoss()
)
   0%|                                                                                                                                                           | 0/14681 [00:00<?, ?it/s]
  47%|██████████████████████████████████████████████████████████████████▏                                                                          | 6897/14681 [00:00<00:00, 68964.48it/s]
…
