…
 num_neg               | 1                   
 num_workers           | 5                   
 optimizer             | Adam                
 random_seed           | 0                   
 save_final_results    | 1                   
 test_all              | 0                   
 topk                  | 5,10,20,50          
==============================================
INFO:root:Device: cpu
INFO:root:Load corpus from data/Grocery_and_Gourmet_Food\SeqReader.pkl
INFO:root:#params: 1643392
INFO:root:ADRec(
  (projection): Identity()
  (emb_projection): Identity()
  (i_embeddings): Embedding(8715, 128, padding_idx=0)
  (embed_dropout): Dropout(p=0.2, inplace=False)
  (hist_norm): LayerNorm((128,), eps=1e-05, elementwise_affine=True)
  (diffusion): DiffusionModule(
    (denoise_net): DenoisedModel(
      (decoder): Sequential(
        (0): Linear(in_features=128, out_features=512, bias=True)
        (1): SiLU()
        (2): Linear(in_features=512, out_features=128, bias=True)
        (3): LayerNorm((128,), eps=1e-05, elementwise_affine=True)
      )
      (time_embed): Sequential(
        (0): Linear(in_features=128, out_features=512, bias=True)
        (1): SiLU()
        (2): Linear(in_features=512, out_features=128, bias=True)
      )
    )
    (condition_encoder): TransformerEncoder(
      (layers): ModuleList(
        (0): Sequential(
          (0): LayerNorm((128,), eps=1e-05, elementwise_affine=True)
          (1): Linear(in_features=128, out_features=512, bias=True)
          (2): SiLU()
          (3): Dropout(p=0, inplace=False)
          (4): Linear(in_features=512, out_features=128, bias=True)
          (5): Dropout(p=0, inplace=False)
        )
        (1): Sequential(
          (0): LayerNorm((128,), eps=1e-05, elementwise_affine=True)
          (1): Linear(in_features=128, out_features=512, bias=True)
          (2): SiLU()
          (3): Dropout(p=0, inplace=False)
          (4): Linear(in_features=512, out_features=128, bias=True)
          (5): Dropout(p=0, inplace=False)
        )
      )
    )
  )
  (ce_loss): CrossEntropyLoss()
)
INFO:root:Test Before Training: (HR@5:0.0512,NDCG@5:0.0300,HR@10:0.0969,NDCG@10:0.0446,HR@20:0.1913,NDCG@20:0.0681,HR@50:0.4996,NDCG@50:0.1284)
INFO:root:Optimizer: Adam
INFO:root:Epoch 1     loss=0.5041 [64.9 s]	dev=(HR@5:0.2536,NDCG@5:0.1664) [63.7 s] *
…
