…
 num_neg               | 1                   
 num_workers           | 5                   
 optimizer             | Adam                
 random_seed           | 0                   
 rescale_timesteps     | False               
 save_final_results    | 1                   
 test_all              | 0                   
 topk                  | 5,10,20,50          
==============================================
INFO:root:Device: cpu
INFO:root:Load corpus from data/Grocery_and_Gourmet_Food\SeqReader.pkl
INFO:root:#params: 690560
INFO:root:ADRec(
  (projection): Identity()
  (emb_projection): Identity()
  (i_embeddings): Embedding(8714, 64)
  (embed_dropout): Dropout(p=0.2, inplace=False)
  (hist_norm): LayerNorm((64,), eps=1e-05, elementwise_affine=True)
  (diffusion): DiffusionModule(
    (denoise_net): DenoisedModel(
      (decoder): Sequential(
        (0): Linear(in_features=64, out_features=256, bias=True)
        (1): SiLU()
        (2): Linear(in_features=256, out_features=64, bias=True)
        (3): LayerNorm((64,), eps=1e-05, elementwise_affine=True)
      )
      (time_embed): Sequential(
        (0): Linear(in_features=64, out_features=256, bias=True)
        (1): SiLU()
        (2): Linear(in_features=256, out_features=64, bias=True)
      )
    )
    (condition_encoder): TransformerEncoder(
      (layers): ModuleList(
        (0): Sequential(
          (0): LayerNorm((64,), eps=1e-05, elementwise_affine=True)
          (1): Linear(in_features=64, out_features=256, bias=True)
          (2): SiLU()
          (3): Dropout(p=0, inplace=False)
          (4): Linear(in_features=256, out_features=64, bias=True)
          (5): Dropout(p=0, inplace=False)
        )
        (1): Sequential(
          (0): LayerNorm((64,), eps=1e-05, elementwise_affine=True)
          (1): Linear(in_features=64, out_features=256, bias=True)
          (2): SiLU()
          (3): Dropout(p=0, inplace=False)
          (4): Linear(in_features=256, out_features=64, bias=True)
          (5): Dropout(p=0, inplace=False)
        )
      )
    )
  )
  (ce_loss): CrossEntropyLoss()
)
INFO:root:Test Before Training: (HR@5:0.0483,NDCG@5:0.0280,HR@10:0.0977,NDCG@10:0.0438,HR@20:0.2001,NDCG@20:0.0693,HR@50:0.5006,NDCG@50:0.1280)
INFO:root:Optimizer: Adam
INFO:root:Epoch 1     loss=0.5032 [40.5 s]	dev=(HR@5:0.2255,NDCG@5:0.1505) [10.7 s] *
…
