…
 random_seed           | 0                   
 rescale_timesteps     | False               
 save_final_results    | 1                   
 test_all              | 0                   
 topk                  | 5,10,20,50          
 training_stage        | stage1              
 warmup_epochs         | 5                   
==============================================
INFO:root:Device: cpu
INFO:root:Load corpus from data/Grocery_and_Gourmet_Food\SeqReader.pkl
INFO:root:#params: 1115648
INFO:root:ADRec(
  (projection): Identity()
  (emb_projection): Identity()
  (i_embeddings): Embedding(8714, 128)
  (embed_dropout): Dropout(p=0.2, inplace=False)
  (hist_norm): LayerNorm((128,), eps=1e-05, elementwise_affine=True)
  (diffusion): DiffusionModule(
    (denoise_net): DenoisedModel(
      (decoder): TransformerEncoder(
        (layers): ModuleList(
          (0): Sequential(
            (0): LayerNorm((128,), eps=1e-05, elementwise_affine=True)
            (1): Linear(in_features=128, out_features=512, bias=True)
            (2): SiLU()
            (3): Dropout(p=0.1, inplace=False)
            (4): Linear(in_features=512, out_features=128, bias=True)
            (5): Dropout(p=0.1, inplace=False)
          )
          (1): Sequential(
            (0): LayerNorm((128,), eps=1e-05, elementwise_affine=True)
            (1): Linear(in_features=128, out_features=512, bias=True)
            (2): SiLU()
            (3): Dropout(p=0.1, inplace=False)
            (4): Linear(in_features=512, out_features=128, bias=True)
            (5): Dropout(p=0.1, inplace=False)
          )
        )
      )
      (time_embed): Sequential(
        (0): Linear(in_features=128, out_features=512, bias=True)
        (1): SiLU()
        (2): Linear(in_features=512, out_features=128, bias=True)
      )
    )
    (condition_encoder): TransformerEncoder(
      (layers): ModuleList(
        (0): Sequential(
          (0): LayerNorm((128,), eps=1e-05, elementwise_affine=True)
          (1): Linear(in_features=128, out_features=512, bias=True)
          (2): SiLU()
          (3): Dropout(p=0.3, inplace=False)
          (4): Linear(in_features=512, out_features=128, bias=True)
          (5): Dropout(p=0.3, inplace=False)
        )
        (1): Sequential(
          (0): LayerNorm((128,), eps=1e-05, elementwise_affine=True)
          (1): Linear(in_features=128, out_features=512, bias=True)
          (2): SiLU()
          (3): Dropout(p=0.3, inplace=False)
          (4): Linear(in_features=512, out_features=128, bias=True)
          (5): Dropout(p=0.3, inplace=False)
        )
        (2): Sequential(
          (0): LayerNorm((128,), eps=1e-05, elementwise_affine=True)
          (1): Linear(in_features=128, out_features=512, bias=True)
          (2): SiLU()
          (3): Dropout(p=0.3, inplace=False)
          (4): Linear(in_features=512, out_features=128, bias=True)
          (5): Dropout(p=0.3, inplace=False)
        )
        (3): Sequential(
          (0): LayerNorm((128,), eps=1e-05, elementwise_affine=True)
          (1): Linear(in_features=128, out_features=512, bias=True)
          (2): SiLU()
          (3): Dropout(p=0.3, inplace=False)
          (4): Linear(in_features=512, out_features=128, bias=True)
          (5): Dropout(p=0.3, inplace=False)
        )
      )
    )
  )
  (ce_loss): CrossEntropyLoss()
)
INFO:root:Test Before Training: (HR@5:0.0503,NDCG@5:0.0297,HR@10:0.0964,NDCG@10:0.0444,HR@20:0.1973,NDCG@20:0.0696,HR@50:0.5009,NDCG@50:0.1289)
INFO:root:Optimizer: Adam
INFO:root:Epoch 1     loss=0.5521 [76.2 s]	dev=(HR@5:0.2346,NDCG@5:0.1530) [290.1 s] *
…
