…
 save_final_results    | 1                   
 test_all              | 0                   
 topk                  | 5,10,20,50          
==============================================
INFO:root:Device: cpu
INFO:root:Reading data from "data/", dataset = "Grocery_and_Gourmet_Food" 
INFO:root:Counting dataset statistics...
INFO:root:"# user": 14681, "# item": 8713, "# entry": 151254
INFO:root:Appending history info...
INFO:root:Save corpus to data/Grocery_and_Gourmet_Food/SeqReader.pkl
INFO:root:#params: 690624
INFO:root:ADRec(
  (projection): Identity()
  (emb_projection): Identity()
  (i_embeddings): Embedding(8715, 64, padding_idx=0)
  (embed_dropout): Dropout(p=0.2, inplace=False)
  (hist_norm): LayerNorm((64,), eps=1e-05, elementwise_affine=True)
  (diffusion): DiffusionModule(
    (denoise_net): DenoisedModel(
      (decoder): Sequential(
        (0): Linear(in_features=64, out_features=256, bias=True)
        (1): SiLU()
        (2): Linear(in_features=256, out_features=64, bias=True)
        (3): LayerNorm((64,), eps=1e-05, elementwise_affine=True)
      )
      (time_embed): Sequential(
        (0): Linear(in_features=64, out_features=256, bias=True)
        (1): SiLU()
        (2): Linear(in_features=256, out_features=64, bias=True)
      )
    )
    (condition_encoder): TransformerEncoder(
      (layers): ModuleList(
        (0): Sequential(
          (0): LayerNorm((64,), eps=1e-05, elementwise_affine=True)
          (1): Linear(in_features=64, out_features=256, bias=True)
          (2): SiLU()
          (3): Dropout(p=0, inplace=False)
          (4): Linear(in_features=256, out_features=64, bias=True)
          (5): Dropout(p=0, inplace=False)
        )
        (1): Sequential(
          (0): LayerNorm((64,), eps=1e-05, elementwise_affine=True)
          (1): Linear(in_features=64, out_features=256, bias=True)
          (2): SiLU()
          (3): Dropout(p=0, inplace=False)
          (4): Linear(in_features=256, out_features=64, bias=True)
          (5): Dropout(p=0, inplace=False)
        )
      )
    )
  )
  (ce_loss): CrossEntropyLoss()
)
INFO:root:Namespace(model_name='ADRec', model_mode='')
INFO:root:--------------------------------------------- BEGIN: 2025-12-02 15:23:43 ---------------------------------------------
INFO:root:
==============================================
 Arguments             | Values               
…
