…
 num_workers           | 5                   
 optimizer             | Adam                
 random_seed           | 0                   
 rescale_timesteps     | False               
 save_final_results    | 1                   
 schedule_sampler_name | uniform             
 test_all              | 0                   
 topk                  | 5,10,20,50          
==============================================
INFO:root:Device: cpu
INFO:root:Load corpus from data/Grocery_and_Gourmet_Food/SeqReader.pkl
INFO:root:#params: 321024
INFO:root:DiffuRec(
  (projection): Identity()
  (emb_projection): Identity()
  (i_embeddings): Embedding(8715, 32, padding_idx=0)
  (embed_dropout): Dropout(p=0.2, inplace=False)
  (hist_norm): LayerNorm((32,), eps=1e-05, elementwise_affine=True)
  (net): Diffu_xstart(
    (time_embed): Sequential(
      (0): Linear(in_features=32, out_features=128, bias=True)
      (1): SiLU()
      (2): Linear(in_features=128, out_features=32, bias=True)
    )
    (transencoder): TransformerEncoder(
      (layers): ModuleList(
        (0): Sequential(
          (0): LayerNorm((32,), eps=1e-05, elementwise_affine=True)
          (1): Linear(in_features=32, out_features=128, bias=True)
          (2): SiLU()
          (3): Dropout(p=0.1, inplace=False)
          (4): Linear(in_features=128, out_features=32, bias=True)
          (5): Dropout(p=0.1, inplace=False)
        )
        (1): Sequential(
          (0): LayerNorm((32,), eps=1e-05, elementwise_affine=True)
          (1): Linear(in_features=32, out_features=128, bias=True)
          (2): SiLU()
          (3): Dropout(p=0.1, inplace=False)
          (4): Linear(in_features=128, out_features=32, bias=True)
          (5): Dropout(p=0.1, inplace=False)
        )
        (2): Sequential(
          (0): LayerNorm((32,), eps=1e-05, elementwise_affine=True)
          (1): Linear(in_features=32, out_features=128, bias=True)
          (2): SiLU()
          (3): Dropout(p=0.1, inplace=False)
          (4): Linear(in_features=128, out_features=32, bias=True)
          (5): Dropout(p=0.1, inplace=False)
        )
        (3): Sequential(
          (0): LayerNorm((32,), eps=1e-05, elementwise_affine=True)
          (1): Linear(in_features=32, out_features=128, bias=True)
          (2): SiLU()
          (3): Dropout(p=0.1, inplace=False)
          (4): Linear(in_features=128, out_features=32, bias=True)
          (5): Dropout(p=0.1, inplace=False)
        )
      )
    )
    (norm_diffu_rep): LayerNorm((32,), eps=1e-05, elementwise_affine=True)
    (dropout): Dropout(p=0.1, inplace=False)
  )
  (ce_loss): CrossEntropyLoss()
)
INFO:root:Namespace(model_name='DiffuRec', model_mode='')
INFO:root:--------------------------------------------- BEGIN: 2025-12-02 17:13:12 ---------------------------------------------
INFO:root:
==============================================
 Arguments             | Values               
…
